personality_model-dataset.tflite (tflite, 49208 bytes, 8 tensors)

arith.constant f4 [2, 32]
0.09967595 -0.16086626 0.3277665 0.18684942 -0.2166583 0.14855039 -0.18228704 -0.36372855
-0.17820305 -0.29580465 -0.27190617 -0.19583589 -0.28216934 0.026891785 -0.25557223 0.3486419
0.018776756 0.30170214 0.023149583 0.18755747 -0.03874234 -0.4039881 -0.23530176 -0.33909124
0.12205468 0.42310885 -0.09565262 -0.45663562 0.32196903 0.028283006 -0.18318877 -0.12535167
0.13416885 -0.32074806 0.20890558 0.3174199 0.28884628 -0.27987498 -0.11126573 0.04916026
-0.3927982 -0.08723531 0.19138856 0.37119892 -0.3970494 -0.34246716 0.28077224 0.13534397
0.44512483 -0.05030099 -0.28029594 0.27115464 -0.051649604 0.41469887 0.30243745 -0.4073637
0.2319045 -0.42895758 0.012754618 0.056386616 -0.4081146 -0.11670258 -0.25335327 -0.11046458
00000000: e822 cc3d 20ba 24be 03d1 a73e 7455 3f3e
00000010: acdb 5dbe 981d 183e 74a9 3abe a13a babe
00000020: dc7a 36be b573 97be 4937 8bbe 3489 48be
00000030: 8078 90be 294c dc3c 5dda 82be 3181 b23e
00000040: b6d1 993c b478 9a3e 32a4 bd3c 110f 403e
00000050: 4ab0 1ebd 87d7 cebe f2f2 70be 5e9d adbe
00000060: cef7 f93d b9a1 d83e 85e5 c3bd 25cc e9be
00000070: 20d9 a43e c3b1 e73c d695 3bbe 305c 00be
00000080: 8f63 093e 1739 a4be 58eb 553e dc84 a23e
00000090: a9e3 933e c64b 8fbe 49df e3bd 455c 493d
000000a0: d81c c9be 6da8 b2bd 5dfb 433e c90d be3e
000000b0: 0f4a cbbe db57 afbe 61c1 8f3e 9c97 0a3e
000000c0: 67e7 e33e 6908 4ebd f382 8fbe c8d4 8a3e
000000d0: 898e 53bd 6953 d43e 15d9 9a3e fa91 d0be
000000e0: 6078 6d3e 54a0 dbbe bff8 503c a7f5 663d
000000f0: 66f4 d0be c301 efbd 85b7 81be 413b e2bd

arith.constant1 f4 [32, 64]
-0.11435307 -0.09352296 -0.21976326 -0.1922428 -0.19352141 -0.035379965 -0.19934648 -0.19700822
-0.20253853 0.020299923 -0.008620791 0.19048743 -0.18015958 0.119178146 -0.2098343 -0.13509738
0.23677447 -0.11192419 0.03567264 -0.10993523 -0.05520287 -0.17140213 0.17590792 0.29817373
-0.022015652 0.22759275 0.04921445 -0.08406724 -0.19009638 -0.15690857 0.039714057 0.09940296
-0.18895216 -0.2363658 -0.19273141 0.15303299 0.045234066 0.17300779 -0.21424466 0.19305973
0.046996355 -0.16173834 -0.0560578 0.20115186 0.2387593 -0.13354562 0.15926592 0.16708027
-0.22856098 0.058791388 -0.18792911 0.016108695 0.037884634 -0.18879232 0.18909256 -0.046821542
0.102975965 -0.2224339 0.04325841 0.13569848 0.16566727 0.18188673 -0.09006689 0.1795429
-0.20514823 -0.29985967 -0.2134763 -0.25527006 0.14583337 -0.1499257 0.08218284 -0.028830567
-0.12788677 -0.22697052 0.075119324 0.111417204 0.008045988 0.13642454 -0.05255956 0.017654857
-0.09955783 -0.20584588 -0.00791411 0.20565486 0.053532187 0.17402573 0.14147337 0.09843698
0.16265287 -0.10754461 -0.12039529 -0.17930873 0.22251152 0.102215886 -0.22432572 -0.18668956
0.0146282315 -0.1836459 0.05026243 0.05845506 -0.027573645 0.06835756 -0.25906768 -0.19226533
-0.13583362 -0.06921488 0.09571236 -0.06559125 -0.37229922 -0.24438556 0.12866291 0.026777908
-0.2171569 -0.22246832 0.12619586 0.18757576 -0.05942838 -0.21640462 -0.25806195 -0.2134893
0.18687277 0.16274136 0.05669558 -0.0045965896 0.21869715 0.068600416 0.015137505 -0.046934478
-0.22258478 -0.24268028 -0.07271487 -0.07267895 0.25532448 0.15846851 0.03029058 -0.2908081
0.12871379 0.08489915 -0.19125037 0.15438007 -0.16607496 -0.030150838 -0.1945556 -0.028013974
-0.110355176 0.21456416 -0.25914648 -0.18040963 0.01791193 0.20286013 0.014065627 -0.32198185
0.096952334 0.19490452 0.021094576 0.2108608 0.11387092 0.19221549 0.17065786 -0.10111011
0.21279988 0.0029679218 -0.1056853 0.053852703 0.030803153 0.15621006 -0.20421524 0.040430225
-0.10934599 0.050018203 -0.005708844 -0.012193775 -0.14882377 -0.058537465 0.18192849 0.5728796
-0.10569382 0.1955684 0.16604096 0.19543338 -0.13657676 0.0012739347 -0.15910518 0.033865377
0.1447863 -0.09330405 -0.11349349 0.14939153 0.14528933 0.13998936 0.04081964 0.23788534
0.0128592495 -0.0055663586 0.15731221 0.06360198 -0.21095417 -0.18444675 -0.0011568666 0.19136322
-0.0059000254 -0.15124717 -0.24855238 -0.2515747 -0.1881094 -0.07088548 0.17820883 0.089380026
-0.20812482 0.10683956 -0.15277898 0.015755564 -0.012885094 -0.12744828 -0.15049224 0.19463813
0.18042362 -0.20705673 -0.046383195 -0.21241653 -0.089315236 -0.030796865 0.07210935 0.0063791275
0.08082377 -0.16201244 0.12232959 -0.19912422 -0.14144653 -0.029521609 -0.086881734 -0.1411268
-0.07565701 0.17426658 -0.19988675 -0.15307051 0.08903915 -0.028691508 -0.1019699 -0.0134992
0.09596819 -0.18929952 -0.2662862 -0.07918747 -0.12232351 0.063556306 0.030751657 -0.19113958
0.19104844 -0.060762722 0.22951418 0.12220628 0.024397623 0.008112848 0.03649056 0.040235233
00000000: f131 eabd f788 bfbd 9f09 61be 4cdb 44be
00000010: 7a2a 46be 95ea 10bd 7c21 4cbe 86bc 49be
00000020: 4366 4fbe 064c a63c 383e 0dbc 230f 433e
00000030: c17b 38be ac13 f43d cede 56be f856 0abe
00000040: 0275 723e 8238 e5bd 791d 123d b925 e1bd
00000050: 681c 62bd 0a84 2fbe 3521 343e 3aaa 983e
00000060: 2b5a b4bc 130e 693e 1795 493d 722b acbd
00000070: a0a8 42be a4ac 20be 35ab 223d c793 cb3d
00000080: ad7c 41be e009 72be 625b 45be aeb4 1c3e
00000090: 5b47 393d f428 313e f462 5bbe 73b1 453e
000000a0: 407f 403d bc9e 25be dd9c 65bd c1fa 4d3e
000000b0: 517d 743e 2fc0 08be 9b16 233e 1717 2b3e
000000c0: e40b 6abe 3dcf 703d 7d70 40be 62f6 833c
000000d0: eb2c 1b3d c652 41be 7ba1 413e f2c7 3fbd
000000e0: 10e5 d23d b6c5 63be bb2f 313d 8bf4 0a3e
000000f0: aea4 293e 8440 3a3e fd74 b8bd 18da 373e
00000100: 6112 52be 3587 99be 8899 5abe c2b2 82be
00000110: 5855 153e 1f86 19be 7a4f a83d 152e ecbc
00000120: c0f4 02be f66a 68be 29d8 993d b42e e43d
00000130: 52d3 033c e0b2 0b3e b148 57bd eba0 903c
00000140: fae4 cbbd 43c9 52be 2faa 01bc 3097 523e
00000150: 9144 5b3d cd33 323e 65de 103e 5499 c93d
00000160: 798e 263e 5940 dcbd ce91 f6bd b59c 37be
00000170: 0fda 633e 9056 d13d a4b5 65be 8c2b 3fbe
00000180: 40ab 6f3c ac0d 3cbe fadf 4d3d 936e 6f3d
00000190: 20e2 e1bc 0cff 8b3d 85a4 84be 34e1 44be
000001a0: f817 0bbe 88c0 8dbd d804 c43d b554 86bd
000001b0: 019e bebe 3540 7abe 36c0 033e 585d db3c
000001c0: 615e 5ebe bcce 63be 7d39 013e dc13 403e
000001d0: 2c6b 73bd 2c99 5dbe b220 84be f09c 5abe
000001e0: 935b 3f3e aca5 263e a039 683d fd9e 96bb
000001f0: 25f2 5f3e 607e 8c3d 4c03 783c 5e3e 40bd
00000200: 44ed 63be 2e81 78be 89eb 94bd b4d8 94bd
00000210: e4b9 823e 9245 223e f323 f83c cde4 94be
00000220: 8ccd 033e 9bdf ad3d 23d7 43be cf15 1e3e
00000230: 8e0f 2abe e4fe f6bc 9539 47be 907d e5bc
00000240: e501 e2bd b5b6 5b3e d9ae 84be 4dbd 38be
00000250: 0abc 923c 91ba 4f3e 8473 663c ceda a4be
00000260: f28e c63d 0d95 473e 88ce ac3c e5eb 573e
00000270: 2835 e93d 23d4 443e efc0 2e3e d112 cfbd
00000280: 36e8 593e 7781 423b 8971 d8bd a794 5c3d
00000290: e556 fc3c 88f5 1f3e cd1d 51be 2a9a 253d
000002a0: caf0 dfbd e3df 4c3d 4111 bbbb 66c8 47bc
000002b0: 4265 18be fbc4 6fbd 764b 3a3e 3da8 123f
000002c0: 0076 d8bd 1543 483e a406 2a3e b01f 483e
000002d0: c7da 0bbe 28fa a63a 78ec 22be 6cb6 0a3d
000002e0: dc42 143e 3216 bfbd 466f e8bd 18fa 183e
000002f0: bac6 143e 5f59 0f3e 7f32 273d 3798 733e
00000300: 9aaf 523c 0066 b6bb 7416 213e c141 823d
00000310: 5f04 58be 9cdf 3cbe 00a2 97ba b8f4 433e
00000320: 0055 c1bb 8ae0 1abe 8484 7ebe 66ce 80be
00000330: c09f 40be 682c 91bd 607c 363e e00c b73d
00000340: ac1e 55be b3ce da3d 1872 1cbe d011 813c
00000350: 001c 53bc cd81 02be a31a 1abe 384f 473e
00000360: f8c0 383e ae06 54be 4efc 3dbd b883 59be
00000370: e8ea b6bd b549 fcbc 11ae 933d 0008 d13b
00000380: ef86 a53d 97e6 25be f087 fa3d 38e7 4bbe
00000390: 5cd7 10be 4dd7 f1bc 0def b1bd 8b83 10be
000003a0: 10f2 9abd f072 323e 1daf 4cbe 84be 1cbe
000003b0: 285a b63d 740a ebbc 98d5 d0bd c02b 5dbc
000003c0: f88a c43d bcd7 41be aa56 88be 0a2d a2bd
000003d0: c084 fabd cf29 823d e6ea fb3c 18ba 43be
000003e0: 34a2 433e 55e2 78bd c405 6b3e 4947 fa3d
000003f0: 86dd c73c c0eb 043c 2077 153d b3cd 243d

arith.constant2 f4 [64, 128]
0.01822192 0.002880843 -0.20886485 -0.06003519 -0.07997427 0.060810737 -0.27214712 0.24932978
0.020773342 0.066282675 -0.31503385 -0.019904241 0.030941978 0.021360494 -0.097847074 0.108436
-0.17885557 -0.31590283 -0.27667028 -0.0077420617 -0.2319107 -0.15426145 -0.11598909 -0.03999804
-0.04213378 0.2871665 -0.10017593 -0.003635721 0.029689973 0.14256695 0.07091384 0.09339659
-0.10150316 0.118583485 -0.14878042 -0.16759281 0.16237518 -0.12985171 0.061175626 0.022480797
-0.11991919 -0.036444426 0.0056313705 -0.23168397 -0.2264842 0.16219822 0.1849814 -0.043394476
-0.08002491 0.14499147 -0.098023765 0.020566016 0.037512347 0.07707368 0.12455179 0.025171006
0.15480809 -0.15906882 0.11733611 0.08392031 0.09718369 0.07951031 -0.19403827 0.16861936
-0.15108769 -0.20896836 -0.07875189 0.12527725 -0.17773153 0.026726859 0.06854654 -0.09891928
0.07682537 0.14069156 -0.15305382 -0.081363775 0.07432528 0.0033045083 -0.14137284 0.17334326
0.039452605 -0.09026491 -0.209071 -0.2891776 -0.13708876 -0.070023954 0.24439102 0.13123386
-0.24533454 -0.3535625 0.01177679 0.18259294 -0.17433959 -0.06808244 0.18638277 -0.06704017
-0.2716711 0.062878795 -0.09666787 0.066938825 0.19488224 0.08732635 0.13386641 0.048484474
-0.15484096 0.1373282 0.11226625 0.20052987 -0.1922404 0.012954883 0.0983385 -0.28926235
-0.42194003 0.10091302 0.057732433 0.04562136 0.15496825 0.046542972 -0.060229402 -0.024812229
0.032268662 0.12491601 0.19690573 0.1386369 -0.08330354 0.11625007 0.08473425 0.1200456
-0.25516537 -0.111948036 0.100040756 0.25034636 -0.053087883 0.39936578 0.0055626645 0.56147844
0.09124703 -0.24355988 0.116230756 0.023473296 0.16640267 -0.13141488 -0.016286902 -0.0965202
-0.06299482 0.28680748 0.10097692 0.025163576 0.16114849 -0.052028254 0.15735435 0.1496479
0.26951855 0.119858995 -0.07201051 0.0955919 -0.10759446 -0.27974728 -0.024732443 -0.1722493
-0.091482416 0.12873867 0.17593923 0.15533553 -0.051475473 -0.15818362 -0.059505384 0.024212662
-0.09655891 0.05578448 0.18319982 0.21284908 0.1533497 -0.02901369 0.30561575 -0.042128056
0.09956293 0.047861367 0.07732643 -0.008725584 -0.06492088 -0.14639387 -0.06892874 0.19758306
0.1702201 0.016026169 0.29149324 -0.094730906 -0.07802922 0.065430626 -0.024720844 0.1902244
-0.09254665 0.2655726 0.11242701 0.28462 0.07862405 0.07567017 -0.13184454 0.0049270084
0.2724774 0.16037627 0.20383976 0.11344658 0.093029514 0.07418779 -0.039262243 0.014789857
-0.037417978 0.06358851 0.123287566 0.21451953 -0.027102126 0.06624195 0.020581983 0.003285553
-0.06840474 0.3745593 0.14579843 -0.3008304 0.1352071 -0.17953722 0.11210066 -0.27007592
0.17142744 -0.06367458 0.4400135 0.18338369 -0.09217087 -0.1866027 -0.066416465 0.08048985
0.005664433 0.3608837 -0.113557085 -0.13197537 0.34999803 -0.11366445 -0.11278349 0.30409244
-0.088010326 -0.27151418 0.02706815 -0.049401313 -0.22106491 -0.07755075 -0.065604396 0.0424234
-0.011365462 -0.027384074 0.04086481 0.050417483 0.015652558 0.036858175 -0.069534324 -0.20456885
00000000: 2346 953c 86cc 3c3b abe0 55be 76e7 75bd
00000010: 8dc9 a3bd ae14 793d de56 8bbe 4e50 7f3e
00000020: db2c aa3c 36bf 873d 1e4c a1be 380e a3bc
00000030: 087a fd3c 34fc ae3c 0c64 c8bd b213 de3d
00000040: ea25 37be 04be a1be baa7 8dbe 1fb1 fdbb
00000050: 007a 6dbe b7f6 1dbe b08b edbd fcd4 23bd
00000060: 7894 2cbd 7d07 933e 0a29 cdbd 4745 6ebb
00000070: 6338 f33c 12fd 113e 463b 913d b646 bf3d
00000080: e4e0 cfbd e6db f23d e559 18be 739d 2bbe
00000090: ae45 263e d9f7 04be 4b93 7a3d a629 b83c
000000a0: 3198 f5bd c046 15bd 5c87 b83b 903e 6dbe
000000b0: 79eb 67be 4a17 263e c46b 3d3e 68be 31bd
000000c0: 1ae4 a3bd a578 143e afc0 c8bd 107a a83c
000000d0: 8ca6 193d ced8 9d3d 0215 ff3d 6d33 ce3c
000000e0: 0386 1e3e f0e2 22be ea4d f03d 69de ab3d
000000f0: 3e08 c73d 4dd6 a23d f8b1 46be 8eaa 2c3e
00000100: bbb6 1abe cdfb 55be ac48 a1bd ae48 003e
00000110: 41ff 35be 49f2 da3c 2162 8c3d 3196 cabd
00000120: 9f56 9d3d 7311 103e 24ba 1cbe 0da2 a6bd
00000130: da37 983d 7390 583b 0bc4 10be e580 313e
00000140: 0e99 213d cfdc b8bd b516 56be 160f 94be
00000150: ff60 0cbe b868 8fbd a441 7a3e 2b62 063e
00000160: fa38 7bbe 2506 b5be 70f3 403c a5f9 3a3e
00000170: 1486 32be ce6e 8bbd 20db 3e3e 5b4c 89bd
00000180: 7918 8bbe 99c6 803d cef9 c5bd 3917 893d
00000190: 368f 473e 28d8 b23d 4714 093e a897 463d
000001a0: a18e 1ebe c39f 0c3e d9eb e53d b457 4d3e
000001b0: abda 44be b840 543c b265 c93d 321a 94be
000001c0: 8608 d8be 7cab ce3d d878 6c3d 77dd 3a3d
000001d0: ffaf 1e3e d8a3 3e3d 1bb3 76bd 0443 cbbc
000001e0: 252c 043d f7d3 ff3d a8a1 493e d5f6 0d3e
000001f0: 0c9b aabd 8414 ee3d 2789 ad3d 78da f53d
00000200: 09a5 82be 0345 e5bd 2be2 cc3d 662d 803e
00000210: ae72 59bd ac79 cc3e 0347 b63b 0dbd 0f3f
00000220: b9df ba3d c367 79be 640a ee3d 124b c03c
00000230: 7665 2a3e 9f91 06be 1c6c 85bc 62ac c5bd
00000240: 6e03 81bd 6ed8 923e fdcc ce3d d823 ce3c
00000250: 1c04 253e 941b 55bd 8021 213e 4d3d 193e
00000260: 56fe 893e a278 f53d 3f7a 93bd b0c5 c33d
00000270: 7c5a dcbd 093b 8fbe b19b cabc 1f62 30be
00000280: 225b bbbd 12d4 033e 6a29 343e 4710 1f3e
00000290: f2d7 52bd e3fa 21be ebbb 73bd a259 c63c
000002a0: aec0 c5bd 447e 643d bc98 3b3e 1cf5 593e
000002b0: b407 1d3e 1eae edbc ab79 9c3e 788e 2cbd
000002c0: a6e7 cb3d 480a 443d 525d 9e3d c0f5 0ebc
000002d0: 3df5 84bd 46e8 15be 832a 8dbd 3753 4a3e
000002e0: 2e4e 2e3e 5049 833c 9a3e 953e 4702 c2bd
000002f0: c9cd 9fbd 7e00 863d 5e83 cabc 2fca 423e
00000300: 1989 bdbd 22f9 873e 2240 e63d b6b9 913e
00000310: a505 a13d f6f8 9a3d 4102 07be be72 a13b
00000320: 2882 8b3e ad39 243e 5fbb 503e ae56 e83d
00000330: 4286 be3d c5ef 973d 72d1 20bd 2851 723c
00000340: 9843 19bd b13a 823d 317e fc3d 02ab 5b3e
00000350: 4705 debc dca9 873d 8c9b a83c 6f52 573b
00000360: c917 8cbd 3dc6 bf3e 2f4c 153e 7106 9abe
00000370: bb73 0a3e 9bd8 37be 0895 e53d 6447 8abe
00000380: ad8a 2f3e d167 82bd 7349 e13e efc8 3b3e
00000390: 15c4 bcbd c714 3fbe 5b05 88bd ddd7 a43d
000003a0: b59c b93b c0c5 b83e 9e90 e8bd 8d24 07be
000003b0: f132 b33e e8c8 e8bd 08fb e6bd 01b2 9b3e
000003c0: c23e b4bd e803 8bbe 06be dd3c 0859 4abd
000003d0: d75e 62be edd2 9ebd 995b 86bd 29c4 2d3d
000003e0: 3436 3abc 9154 e0bc dc61 273d 9082 4e3d
000003f0: cb39 803c 99f8 163d 0368 8ebd 7f7a 51be

arith.constant3 f4 [2]
0.024711005 -0.024710994
00000000: bc6e ca3c b66e cabc

arith.constant4 f4 [32]
-0.0063780164 -0.021007659 0.0035460533 -0.041435204 0.06972986 -0.027480947 0.033977628 0.06129793
-0.015975008 -0.087472364 0.08263476 0.07348323 0.0024108677 -0.017983008 0.049717363 -0.030631708
0.076433755 0.035093293 0.061832074 -0.013609581 -0.019302655 0.07071362 0.08717245 -0.02384995
-0.01872194 0.04889031 -0.015255771 0.06590091 0.08221723 0.008406386 -0.012584513 0.01870217
00000000: aefe d0bb 4118 acbc e764 683b f6b7 29bd
00000010: 87ce 8e3d b91f e1bc 202c 0b3d 8a13 7b3d
00000020: 05de 82bc b624 b3bd 6a3c a93d 607e 963d
00000030: a6ff 1d3b 1a51 93bc 6fa4 4b3d 59ef fabc
00000040: 4d89 9c3d fcbd 0f3d a143 7d3d b8fa 5ebc
00000050: 9a20 9ebc 4dd2 903d 7887 b23d f860 c3bc
00000060: c15e 99bc 3541 483d 57f3 79bc 0ef7 863d
00000070: 8261 a83d f0ba 093c 462f 4ebc 4b35 993c

sequential_1/dense_1_2/BiasAdd/ReadVariableOp f4 [64]
0.022276394 0.039071865 -0.0024251023 0.097335175 -0.012470631 0.025585951 -0.028621402 0.045395564
-0.010172309 0.06478938 0.03750147 0.0035955943 -0.08529672 0.034353524 -0.0031113746 -0.041657645
-0.07465298 0.08273356 0.012563437 0.012725678 0.05690991 0.053598568 0.072376385 -0.066223435
-0.011651655 -0.024618525 0.05731082 0.029522574 -0.014908547 0.07415379 0.057649918 -0.022599623
0.007156758 0.043707382 -0.013020165 -0.0010514194 -0.020749597 0.071033835 0.046359718 0.039005153
-0.05272123 -0.015625905 -0.030869843 0.031921547 0.0015878676 0.048224047 -0.04620299 -0.02448975
-0.049605165 -0.047173973 0.033670906 -0.04984394 0.024604237 0.048043888 0.03824738 -0.021380683
-0.05458899 0.07415315 -0.02622838 0.0003673265 0.026921384 -0.049553018 -0.034545105 0.035386764
00000000: fc7c b63c d209 203d 77ee 1ebb aa57 c73d
00000010: 9e51 4cbc a199 d13c 6e77 eabc b3f0 393d
00000020: c2a9 26bc 4bb0 843d 249b 193d 10a4 6b3b
00000030: 0cb0 aebd 48b6 0c3d 34e8 4bbb 35a1 2abd
00000040: a9e3 98bd 3670 a93d e0d6 4d3c 5d7f 503c
00000050: 5e1a 693d 2c8a 5b3d 123a 943d 27a0 87bd
00000060: 95e6 3ebc caac c9bc c0be 6a3d 53d9 f13c
00000070: fa42 74bc f1dd 973d 5222 6c3d d822 b9bc
00000080: 3d83 ea3b 8306 333d 8852 55bc c8cf 89ba
00000090: 0ffb a9bc 307a 913d b0e3 3d3d dec3 1f3d
000000a0: 37f2 57bd e601 80bc c1e2 fcbc 2bc0 023d
000000b0: ff1f d03a 9486 453d 593f 3dbd ba9e c8bc
000000c0: c92e 4bbd 7f39 41bd 81ea 093d 2929 4cbd
000000d0: d38e c93c abc9 443d 49a9 1c3d 8b26 afbc
000000e0: b498 5fbd 9bdd 973d e6dc d6bc ba95 c039
000000f0: 3c8a dc3c 1bf8 4abd 2b7f 0dbd b6f1 103d

sequential_1/dense_1/BiasAdd/ReadVariableOp f4 [128]
0.0040348605 -0.0421689 -0.015428823 0.04428806 -0.024835657 0.009836841 -0.011403586 0.009718588
-0.010011548 -0.004363515 -0.04539145 -0.03220337 0.025181638 -0.016274882 -0.026072353 0.0
-0.12386016 -0.019776668 -0.022697916 -0.017136455 0.018887226 -0.04243218 -0.005307982 -0.039123647
0.01461222 0.007130662 0.00032843155 -0.03848225 0.06314021 -0.019395374 -0.008963529 -0.056946043
-0.035354704 -0.077478684 -0.06881693 0.0 -0.03747608 0.028651388 0.031539347 -0.008269795
0.01854983 0.0 -0.08437404 0.006672086 -0.02285952 0.0281454 -0.027585888 0.0
0.0033041474 -0.010865423 -0.0106622735 0.0 -0.07694843 -0.03594698 -0.04719746 -0.0024504783
-0.002779535 0.0 0.0008434639 -0.011680258 -0.03072113 -0.05286692 -0.028845446 -0.00355442
-0.0032123227 0.012289531 0.0 0.02306113 0.0015032929 0.0043054596 0.022540057 -0.01715902
0.020494752 -0.02956187 0.035984635 0.0 -0.005265215 0.005672736 -0.051168308 0.0069733574
-0.037911408 -0.0044854153 -0.03103125 -0.014687762 0.028461348 0.0 -0.054062244 -0.0096842805
-0.016279193 -0.0022060836 -0.065204024 0.018360954 0.0 -0.05129134 0.024239054 -0.0675795
0.04667961 0.008027309 -0.017537579 -0.013268395 -0.005911463 -0.015836589 -0.05515869 -0.0698655
-0.005644464 0.009964219 -0.046572402 0.019854749 0.06617927 -0.0414215 0.0 0.023501227
0.011724495 0.034025326 -0.03138238 -0.054974016 0.052683067 0.0 -0.018330928 -0.023479568
-0.029993929 -0.025841001 0.004570179 0.015108082 -0.03427576 -0.04145078 -0.065955356 -0.05385501
00000000: dd36 843b 4cb9 2cbd 2dc9 7cbc 6667 353d
00000010: 2674 cbbc b42a 213c 1bd6 3abc b63a 1f3c
00000020: 7a07 24bc d1fb 8ebb 63ec 39bd aee7 03bd
00000030: b949 ce3c e752 85bc b095 d5bc 0000 0000
00000040: 65aa fdbd ae02 a2bc fbf0 b9bc c061 8cbc
00000050: 62b9 9a3c 5ecd 2dbd 95ee adbb 1e40 20bd
00000060: 1868 6f3c 54a8 e93b 5631 ac39 909f 1dbd
00000070: a84f 813d 0ce3 9ebc c4db 12bc 4140 69bd
00000080: 18d0 10bd 25ad 9ebd e4ef 8cbd 0000 0000
00000090: 8580 19bd 51b6 ea3c 672f 013d 097e 07bc
000000a0: d0f5 973c 0000 0000 4ccc acbd 84a1 da3b
000000b0: e343 bbbc 2f91 e63c cdfb e1bc 0000 0000
000000c0: 658a 583b e304 32bc d1b0 2ebc 0000 0000
000000d0: 2397 9dbd 243d 13bd 2052 41bd 3498 20bb
000000e0: dc28 36bb 0000 0000 e71b 5d3a 8e5e 3fbc
000000f0: e1aa fbbc fc8a 58bd 494d ecbc 46f1 68bb
00000100: d585 52bb 075a 493c 0000 0000 b2ea bc3c
00000110: 240a c53a d014 8d3b eda5 b83c 1391 8cbc
00000120: 9ce4 a73c bc2b f2bc a064 133d 0000 0000
00000130: d387 acbb 5ce2 b93b dc95 51bd c380 e43b
00000140: fe48 1bbd 64fa 92bb 3f35 febc f0a4 70bc
00000150: c627 e93c 0000 0000 5f70 5dbd d1aa 1ebc
00000160: f15b 85bc f193 10bb b089 85bd b669 963c
00000170: 0000 0000 de16 52bd fb90 c63c 1f67 8abd
00000180: 1e33 3f3d f984 033c f8aa 8fbc af63 59bc
00000190: f2b4 c1bb bcbb 81bc 14ee 61bd a515 8fbd
000001a0: 32f5 b8bb f740 233c b4c2 3ebd 6da6 a23c
000001b0: ff88 873d 97a9 29bd 0000 0000 a585 c03c
000001c0: 1918 403c 245e 0b3d cf8a 00bd 6f2c 61bd
000001d0: 33ca 573d 0000 0000 be2a 96bc 3958 c0bc
000001e0: d4b5 f5bc 82b0 d3bc 71c1 953b e487 773c
000001f0: bd64 0cbd 4bc8 29bd 9a13 87bd 1297 5cbd

sequential_1/dense_1/MatMul f4 [128, 9]
-0.24008927 -0.022832729 0.11587235 0.14596295 0.19693473 -0.01875622 -0.14633204 0.12930751
-0.1490277 -0.0808764 -0.46896625 -0.18852574 0.014177043 -0.36064118 0.17396827 0.028111603
-0.2056913 0.16357812 -0.18003772 0.256869 0.037260137 0.2124189 0.07694633 -0.13961971
0.17067344 -0.18595196 0.1003905 0.08896935 -0.067060396 -0.115088284 -0.030027723 -0.370435
-0.2502019 0.013977811 0.41745144 -0.20893796 0.14471214 -0.024817826 0.08916164 -0.088618755
0.21525835 0.1248697 -0.13440466 0.09297412 0.05881352 0.08527674 0.2566101 0.116146885
-0.49239138 -0.0070436867 -0.027584346 0.14057471 0.073942766 -0.2419624 0.20147964 -0.17777431
-0.20847847 -0.10232586 -0.19737437 -0.19629878 -0.008371477 0.13632782 -0.02709713 0.09435126
0.05636022 0.1515266 -0.5096471 -0.11130391 0.013814202 0.15555194 0.22641727 -0.24928977
0.20890169 -0.23522258 -0.11371266 0.0034417552 -0.029956276 0.04094784 -0.0005441564 0.20873393
-0.06293713 0.13334267 -0.1399436 -0.005817959 0.114130825 0.09546525 -0.035649244 -0.23959352
0.11490551 -0.15417697 0.14996564 -0.17032625 -0.22500232 -0.2492295 -0.25857657 0.25642633
-0.18099254 0.096436016 0.069538906 -0.09635249 0.33397174 -0.27677855 0.26139805 0.24601692
-0.19059636 0.15846539 -0.14409186 -0.09243852 0.35810006 -0.1986131 0.0822862 0.038312566
-0.16703983 0.18512823 -0.2208984 0.12444835 -0.16589855 0.030874757 0.16455287 -0.0879634
0.03874053 -0.29721808 0.06235345 0.10683548 0.04578524 -0.22334026 0.042426277 0.2681122
-0.27179185 -0.16534354 0.07924363 -0.0017569782 0.045618653 0.16572872 0.06651965 0.061327323
-0.008647218 0.027889714 0.101850584 -0.18967056 -0.20449238 -0.17975192 -0.2060866 -0.19000636
0.024034936 0.1153314 0.10739115 0.06405807 0.07956291 -0.2272985 -0.036652 0.011024975
0.03157168 -0.037380073 -0.25118613 0.31326476 -0.30243587 -0.10073497 -0.09869374 0.059427448
-0.07264572 -0.014910885 -0.010162581 -0.4216988 0.07699762 -0.08758209 -0.15658224 -0.09626396
0.03720461 -0.11019397 0.046269946 0.18940085 -0.032289486 -0.064872466 -0.19660316 0.04847647
0.20577465 0.07377541 0.1602821 -0.15562284 0.19699457 -0.14907087 -0.19197373 -0.06830641
-0.4214031 0.24373639 -0.24631637 0.04539015 -0.002975071 0.05580152 -0.015152542 -0.29475743
-0.20109883 0.033458486 -0.11041109 0.026432354 -0.18867107 0.06304276 -0.27924693 0.0317715
-0.19866922 0.009378993 -0.13686173 0.25235465 0.08606987 -0.1592743 0.110956386 0.10744832
0.03584986 -0.1341463 0.085321955 -0.10272041 0.16156128 0.07176203 0.090864904 -0.12274597
-0.26406404 -0.041383386 -0.083560646 -0.29316866 0.011002917 0.079763204 -0.05613041 0.22964609
0.09648357 -0.37219784 0.21148145 -0.105771594 -0.21025781 -0.2699293 0.052594185 -0.018682936
0.16658707 0.018289423 -0.101924926 0.17033887 0.18481977 0.14414984 -0.038482618 -0.08227926
-0.16303782 -0.1886122 0.26501966 -0.0066921106 0.06594227 0.009328797 0.05464793 0.104762875
-0.21897571 -0.17238761 -0.019684225 0.13239469 0.15150861 -0.117857754 -0.20276175 -0.07561872
00000000: f6d9 75be b40b bbbc 7c4e ed3d 5077 153e
00000010: 42a9 493e a5a6 99bc 11d8 15be 3069 043e
00000020: b89a 18be 87a2 a5bd 581c f0be e40c 41be
00000030: d446 683c f6a5 b8be bd24 323e 4e4a e63c
00000040: bda0 52be 0681 273e cf5b 38be 5584 833e
00000050: 169e 183d 5784 593e 0a96 9d3d 78f8 0ebe
00000060: 05c5 2e3e 316a 3ebe 8999 cd3d 9035 b63d
00000070: f656 89bd 68b3 ebbd b3fc f5bc a8a9 bdbe
00000080: 771a 80be 3003 653c 32bc d53e d5f3 55be
00000090: 6b2f 143e c14e cbbc 619a b63d c07d b5bd
000000a0: af6c 5c3e afbb ff3d 60a1 09be 3769 be3d
000000b0: 72e6 703d 92a5 ae3d 6662 833e 6bde ed3d
000000c0: b91a fcbe bace e6bb 91f8 e1bc d1f2 0f3e
000000d0: 4e6f 973d fec4 77be ae50 4e3e 780a 36be
000000e0: 617b 55be 3890 d1bd 821c 4abe 8c02 49be
000000f0: 8528 09bc 8599 0b3e cdfa ddbc 3c3b c13d
00000100: f9d9 663d ca29 1b3e 3b78 02bf 4ef3 e3bd
00000110: f654 623c 0249 1f3e eed9 673e d145 7fbe
00000120: 53ea 553e 30de 70be 2fe2 e8bd 128f 613b
00000130: dd66 f5bc ecb8 273d b8a5 0eba 59be 553e
00000140: 2fe5 80bd fb8a 083e 604d 0fbe 94a4 bebb
00000150: 6cbd e93d 4983 c33d f104 12bd 0158 75be
00000160: 9453 eb3d 91e0 1dbe 9890 193e 016a 2ebe
00000170: 0267 66be 0536 7fbe 2664 84be 504a 833e
00000180: 1c56 39be 3f80 c53d 6a6a 8e3d 7454 c5bd
00000190: 58fe aa3e ebb5 8dbe f7d5 853e dceb 7b3e
000001a0: b12b 43be c044 223e d18c 13be 6850 bdbd
000001b0: e458 b73e 3c61 4bbe ab85 a83d a3ed 1c3d
000001c0: 7d0c 2bbe 4192 3d3e 3133 62be c7de fe3d
000001d0: 4fe1 29be 0fed fc3c 8c80 283e 2826 b4bd
000001e0: 64ae 1e3d f82c 98be 5566 7f3d 8fcc da3d
000001f0: 4e89 3b3d 4fb3 64be 2dc7 2d3d 0146 893e
00000200: 4d28 8bbe d14f 29be 7c4a a23d 684a e6ba
00000210: a0da 3a3d cab4 293e 743b 883d 5c32 7b3d
00000220: 10ad 0dbc f878 e43c 0a97 d03d 0039 42be
00000230: 7366 51be e310 38be 5e08 53be 0791 42be
00000240: eae4 c43c de32 ec3d e4ef db3d e130 833d
00000250: e1f1 a23d f0c0 68be 6820 16bd 19a2 343c
00000260: 4e51 013d d91b 19bd 789b 80be 3d64 a03e
00000270: e0d8 9abe 234e cebd f21f cabd 326a 733d
00000280: 47c7 94bd c94c 74bc f480 26bc e8e8 d7be
00000290: eeb0 9d3d 3d5e b3bd 1857 20be 0a26 c5bd
000002a0: dc63 183d 60ad e1bd 8e85 3d3d 4cf2 413e
000002b0: fb41 04bd dbdb 84bd 5752 49be 438f 463d
000002c0: 97b6 523e 9017 973d fe20 243e 985b 1fbe
000002d0: f2b8 493e 09a6 18be c394 44be 3be4 8bbd
000002e0: 26c2 d7be 0896 793e 5c3a 7cbe 06eb 393d
000002f0: 69f9 42bb 2290 643d 5e42 78bc 72ea 96be
00000300: daec 4dbe c40b 093d 361f e2bd aa88 d83c
00000310: fd32 41be 901c 813d 74f9 8ebe d522 023d
00000320: f26f 4bbe 59aa 193c 7b25 0cbe a134 813e
00000330: 6645 b03d cd18 23be 1a3d e33d dd0d dc3d
00000340: 4ed7 123d a65d 09be 47bd ae3d 145f d2bd
00000350: 5270 253e f9f7 923d 6117 ba3d 3d62 fbbd
00000360: 6733 87be a081 29bd d821 abbd 341a 96be
00000370: 9445 343c e45a a33d 00e9 65bd 5828 6b3e
00000380: 2e99 c53d b790 bebe 988e 583e c79e d8bd
00000390: d34d 57be 2c34 8abe 006d 573d f50c 99bc
000003a0: cd95 2a3e b3d3 953c 04be d0bd 506d 2e3e
000003b0: 6541 3d3e 049c 133e f39f 1dbd 0782 a8bd
000003c0: 63f3 26be 8e23 41be a8b0 873e 7e49 dbbb
000003d0: be0c 873d d0d7 183c 82d6 5f3d eb8d d63d
000003e0: 2b3b 60be 6186 30be d040 a1bc 7992 073e
000003f0: 1325 1b3e 685f f1bd c7a0 4fbe fddd 9abd
